name: "ResSqCNDS8"

layer {
  name: "Data_Tra"
  type: "Data"
  top: "data"
  top: "label"
  include {
    stage: "train"
  }
  transform_param {
    mirror: true
    crop_size: 227
  }
  data_param {
    batch_size: 256
  }
}

layer {
  name: "Data_Val"
  type: "Data"
  top: "data"
  top: "label"
  include {
    stage: "val"
  }
  transform_param {
    mirror: false
    crop_size: 227
  }
  data_param {
    batch_size: 128
  }
}


layer {
  name: "conv1"
  type: "Convolution"
  bottom: "data"
  top: "conv1"
  convolution_param {
    num_output: 64
    kernel_size: 3
    stride: 2
    weight_filler {
      type: "xavier"
    }
  }
}

layer {
	bottom: "conv1"
	top: "conv1"
	name: "scale1"
	type: "Scale"
	scale_param {
		bias_term: true
	}
}


layer {
  name: "relu1"
  type: "ReLU"
  bottom: "conv1"
  top: "conv1"
}

layer {
  name: "pool1"
  type: "Pooling"
  bottom: "conv1"
  top: "pool1"
  pooling_param {
    pool: MAX
    kernel_size: 3
    stride: 2
  }
}

layer {
  name: "fire2/squeeze1x1"
  type: "Convolution"
  bottom: "pool1"
  top: "fire2/squeeze1x1"
  convolution_param {
    num_output: 16
    kernel_size: 1
    weight_filler {
      type: "xavier"
    }
  }
}

layer {
	bottom: "fire2/squeeze1x1"
	top: "fire2/squeeze1x1"
	name: "fire2/scale1"
	type: "Scale"
	scale_param {
		bias_term: true
	}
}

layer {
  name: "fire2/relu_squeeze1x1"
  type: "ReLU"
  bottom: "fire2/squeeze1x1"
  top: "fire2/squeeze1x1"
}

layer {
  name: "fire2/expand1x1"
  type: "Convolution"
  bottom: "fire2/squeeze1x1"
  top: "fire2/expand1x1"
  convolution_param {
    num_output: 64
    kernel_size: 1
    weight_filler {
      type: "xavier"
    }
  }
}

layer {
	bottom: "fire2/expand1x1"
	top: "fire2/expand1x1"
	name: "fire2/ex_scale1"
	type: "Scale"
	scale_param {
		bias_term: true
	}
}

layer {
  name: "fire2/relu_expand1x1"
  type: "ReLU"
  bottom: "fire2/expand1x1"
  top: "fire2/expand1x1"
}

layer {
  name: "fire2/expand3x3"
  type: "Convolution"
  bottom: "fire2/squeeze1x1"
  top: "fire2/expand3x3"
  convolution_param {
    num_output: 64
    pad: 1
    kernel_size: 3
    weight_filler {
      type: "xavier"
    }
  }
}

layer {
	bottom: "fire2/expand3x3"
	top: "fire2/expand3x3"
	name: "fire2/ex2_scale1"
	type: "Scale"
	scale_param {
		bias_term: true
	}
}

layer {
  name: "fire2/relu_expand3x3"
  type: "ReLU"
  bottom: "fire2/expand3x3"
  top: "fire2/expand3x3"
}

layer {
  name: "fire2/concat"
  type: "Concat"
  bottom: "fire2/expand1x1"
  bottom: "fire2/expand3x3"
  top: "fire2/concat"
}


layer {
  name: "pool2"
  type: "Pooling"
  bottom: "fire2/concat"
  top: "pool2"
  pooling_param {
    pool: MAX
    kernel_size: 3
    stride: 2
  }
}

layer {
  name: "fire4/squeeze1x1"
  type: "Convolution"
  bottom: "pool2"
  top: "fire4/squeeze1x1"
  convolution_param {
    num_output: 32
    kernel_size: 1
    weight_filler {
      type: "xavier"
    }
  }
}

layer {
	bottom: "fire4/squeeze1x1"
	top: "fire4/squeeze1x1"
	name: "fire4/scale1"
	type: "Scale"
	scale_param {
		bias_term: true
	}
}

layer {
  name: "fire4/relu_squeeze1x1"
  type: "ReLU"
  bottom: "fire4/squeeze1x1"
  top: "fire4/squeeze1x1"
}
layer {
  name: "fire4/expand1x1"
  type: "Convolution"
  bottom: "fire4/squeeze1x1"
  top: "fire4/expand1x1"
  convolution_param {
    num_output: 128
    kernel_size: 1
    weight_filler {
      type: "xavier"
    }
  }
}

layer {
	bottom: "fire4/expand1x1"
	top: "fire4/expand1x1"
	name: "fire4/ex_scale1"
	type: "Scale"
	scale_param {
		bias_term: true
	}
}

layer {
  name: "fire4/relu_expand1x1"
  type: "ReLU"
  bottom: "fire4/expand1x1"
  top: "fire4/expand1x1"
}

layer {
  name: "fire4/expand3x3"
  type: "Convolution"
  bottom: "fire4/squeeze1x1"
  top: "fire4/expand3x3"
  convolution_param {
    num_output: 128
    pad: 1
    kernel_size: 3
    weight_filler {
      type: "xavier"
    }
  }
}

layer {
	bottom: "fire4/expand3x3"
	top: "fire4/expand3x3"
	name: "fire4/ex2_scale1"
	type: "Scale"
	scale_param {
		bias_term: true
	}
}

layer {
  name: "fire4/relu_expand3x3"
  type: "ReLU"
  bottom: "fire4/expand3x3"
  top: "fire4/expand3x3"
}

layer {
  name: "fire4/concat"
  type: "Concat"
  bottom: "fire4/expand1x1"
  bottom: "fire4/expand3x3"
  top: "fire4/concat"
}

layer {
  name: "fire5/squeeze1x1"
  type: "Convolution"
  bottom: "fire4/concat"
  top: "fire5/squeeze1x1"
  convolution_param {
    num_output: 32
    kernel_size: 1
    weight_filler {
      type: "xavier"
    }
  }
}

layer {
	bottom: "fire5/squeeze1x1"
	top: "fire5/squeeze1x1"
	name: "fire5/scale1"
	type: "Scale"
	scale_param {
		bias_term: true
	}
}

layer {
  name: "fire5/expand1x1"
  type: "Convolution"
  bottom: "fire5/squeeze1x1"
  top: "fire5/expand1x1"
  convolution_param {
    num_output: 128
    kernel_size: 1
    weight_filler {
      type: "xavier"
    }
  }
}

layer {
	bottom: "fire5/expand1x1"
	top: "fire5/expand1x1"
	name: "fire5/ex_scale1"
	type: "Scale"
	scale_param {
		bias_term: true
	}
}


layer {
  name: "fire5/expand3x3"
  type: "Convolution"
  bottom: "fire5/squeeze1x1"
  top: "fire5/expand3x3"
  convolution_param {
    num_output: 128
    pad: 1
    kernel_size: 3
    weight_filler {
      type: "xavier"
    }
  }
}

layer {
	bottom: "fire5/expand3x3"
	top: "fire5/expand3x3"
	name: "fire5/ex2_scale1"
	type: "Scale"
	scale_param {
		bias_term: true
	}
}

layer {
  name: "fire5/concat"
  type: "Concat"
  bottom: "fire5/expand1x1"
  bottom: "fire5/expand3x3"
  top: "fire5/concat"
}

# =============================
layer {
	bottom: "pool2"
	top: "res3_branch"
	name: "res3_branch"
	type: "Convolution"
	convolution_param {
		num_output: 256
		kernel_size: 1
		pad: 0
		stride: 1
		bias_term: false
	}
}

layer {
	bottom: "res3_branch"
	top: "res3_branch"
	name: "scale_res3_branch"
	type: "Scale"
	scale_param {
		bias_term: true
	}
}

layer {
	bottom: "fire5/concat"
	bottom: "res3_branch"
	top: "res3"
	name: "res3"
	type: "Eltwise"
}

# =============================
layer {
  name: "relu3_2"
  type: "ReLU"
  bottom: "res3"
  top: "res3"
}
layer {
  name: "pool3"
  type: "Pooling"
  bottom: "res3"
  top: "pool3"
  pooling_param {
    pool: MAX
    kernel_size: 3
    stride: 2
  }
}





# =================DSN_conv3=====================


layer {
  name: "pool_DSN_conv3"
  type: "Pooling"
  bottom: "res3"
  top: "pool_DSN_conv3"
  pooling_param {
    pool: AVE
    kernel_size: 5
    stride: 2
  }
}





layer {
  name: "DSN_conv3"
  type: "Convolution"
  bottom: "pool_DSN_conv3"
  top: "DSN_conv3"
  convolution_param {
    num_output: 64
    kernel_size: 1
    weight_filler {
      type: "xavier"
    }
  }
}





layer {
  name: "conv8-d"
  type: "Convolution"
  bottom: "DSN_conv3"
  top: "conv8-d"
  convolution_param {
    num_output: 512
    pad: 1
    kernel_size: 3
    weight_filler {
      type: "xavier"
    }
  }
}

layer {
  name: "relu_conv8-d"
  type: "ReLU"
  bottom: "conv8-d"
  top: "conv8-d"
}

layer {
  name: "drop8-d"
  type: "Dropout"
  bottom: "conv8-d"
  top: "conv8-d"
  dropout_param {
    dropout_ratio: 0.5
  }
}

layer {
  name: "conv9-d"
  type: "Convolution"
  bottom: "conv8-d"
  top: "conv9-d"
  convolution_param {
    num_output: 512
    pad: 1
    kernel_size: 3
    weight_filler {
      type: "xavier"
    }
  }
}

layer {
  name: "relu_conv9-d"
  type: "ReLU"
  bottom: "conv9-d"
  top: "conv9-d"
}

layer {
  name: "drop9-d"
  type: "Dropout"
  bottom: "conv9-d"
  top: "conv9-d"
  dropout_param {
    dropout_ratio: 0.5
  }
}


layer {
  name: "conv10-d"
  type: "Convolution"
  bottom: "conv9-d"
  top: "conv10-d"
  convolution_param {
    num_output: 365
    kernel_size: 1
    weight_filler {
      type: "gaussian"
      mean: 0.0
      std: 0.01
    }
  }
}

layer {
  name: "relu_conv10-d"
  type: "ReLU"
  bottom: "conv10-d"
  top: "conv10-d"
}

layer {
  name: "pool10-d"
  type: "Pooling"
  bottom: "conv10-d"
  top: "pool10-d"
  pooling_param {
    pool: AVE
    global_pooling: true
  }
}













layer {
  name: "Accuracy_DSN"
  type: "Accuracy"
  bottom: "pool10-d"
  bottom: "label"
  top: "Accuracy_DSN"
  include {
    stage: "val"
  }
}

layer {
  name: "Loss_DSN"
  type: "SoftmaxWithLoss"
  bottom: "pool10-d"
  bottom: "label"
  top: "Loss_DSN"
  loss_weight: 0.4
  exclude{
	stage: "deploy"
  }
}

layer{
  name: "Softmax_DSN"
  type: "Softmax"
  bottom: "pool10-d"
  top: "Softmax_DSN"
  include{
	stage: "deploy"
  }
}

# =================DSN-conv3=====================


layer {
  name: "fire8/squeeze1x1"
  type: "Convolution"
  bottom: "pool3"
  top: "fire8/squeeze1x1"
  convolution_param {
    num_output: 64
    kernel_size: 1
    weight_filler {
      type: "xavier"
    }
  }
}

layer {
	bottom: "fire8/squeeze1x1"
	top: "fire8/squeeze1x1"
	name: "fire8/scale1"
	type: "Scale"
	scale_param {
		bias_term: true
	}
}

layer {
  name: "fire8/relu_squeeze1x1"
  type: "ReLU"
  bottom: "fire8/squeeze1x1"
  top: "fire8/squeeze1x1"
}

layer {
  name: "fire8/expand1x1"
  type: "Convolution"
  bottom: "fire8/squeeze1x1"
  top: "fire8/expand1x1"
  convolution_param {
    num_output: 256
    kernel_size: 1
    weight_filler {
      type: "xavier"
    }
  }
}

layer {
	bottom: "fire8/expand1x1"
	top: "fire8/expand1x1"
	name: "fire8/ex_scale1"
	type: "Scale"
	scale_param {
		bias_term: true
	}
}

layer {
  name: "fire8/relu_expand1x1"
  type: "ReLU"
  bottom: "fire8/expand1x1"
  top: "fire8/expand1x1"
}

layer {
  name: "fire8/expand3x3"
  type: "Convolution"
  bottom: "fire8/squeeze1x1"
  top: "fire8/expand3x3"
  convolution_param {
    num_output: 256
    pad: 1
    kernel_size: 3
    weight_filler {
      type: "xavier"
    }
  }
}

layer {
	bottom: "fire8/expand3x3"
	top: "fire8/expand3x3"
	name: "fire8/ex2_scale1"
	type: "Scale"
	scale_param {
		bias_term: true
	}
}

layer {
  name: "fire8/relu_expand3x3"
  type: "ReLU"
  bottom: "fire8/expand3x3"
  top: "fire8/expand3x3"
}

layer {
  name: "fire8/concat"
  type: "Concat"
  bottom: "fire8/expand1x1"
  bottom: "fire8/expand3x3"
  top: "fire8/concat"
}

layer {
  name: "fire9/squeeze1x1"
  type: "Convolution"
  bottom: "fire8/concat"
  top: "fire9/squeeze1x1"
  convolution_param {
    num_output: 64
    kernel_size: 1
    weight_filler {
      type: "xavier"
    }
  }
}

layer {
	bottom: "fire9/squeeze1x1"
	top: "fire9/squeeze1x1"
	name: "fire9/scale1"
	type: "Scale"
	scale_param {
		bias_term: true
	}
}

layer {
  name: "fire9/expand1x1"
  type: "Convolution"
  bottom: "fire9/squeeze1x1"
  top: "fire9/expand1x1"
  convolution_param {
    num_output: 256
    kernel_size: 1
    weight_filler {
      type: "xavier"
    }
  }
}

layer {
	bottom: "fire9/expand1x1"
	top: "fire9/expand1x1"
	name: "fire9/ex_scale1"
	type: "Scale"
	scale_param {
		bias_term: true
	}
}

layer {
  name: "fire9/expand3x3"
  type: "Convolution"
  bottom: "fire9/squeeze1x1"
  top: "fire9/expand3x3"
  convolution_param {
    num_output: 256
    pad: 1
    kernel_size: 3
    weight_filler {
      type: "xavier"
    }
  }
}

layer {
	bottom: "fire9/expand3x3"
	top: "fire9/expand3x3"
	name: "fire9/ex2_scale1"
	type: "Scale"
	scale_param {
		bias_term: true
	}
}

layer {
  name: "fire9/concat"
  type: "Concat"
  bottom: "fire9/expand1x1"
  bottom: "fire9/expand3x3"
  top: "fire9/concat"
}

# =============================
layer {
	bottom: "pool3"
	top: "res4_branch"
	name: "res4_branch"
	type: "Convolution"
	convolution_param {
		num_output: 512
		kernel_size: 1
		pad: 0
		stride: 1
		bias_term: false
	}
}

layer {
	bottom: "res4_branch"
	top: "res4_branch"
	name: "scale_res4_branch"
	type: "Scale"
	scale_param {
		bias_term: true
	}
}

layer {
	bottom: "fire9/concat"
	bottom: "res4_branch"
	top: "res4"
	name: "res4"
	type: "Eltwise"
}

# =============================


layer {
  name: "relu4_2"
  type: "ReLU"
  bottom: "res4"
  top: "res4"
}
layer {
  name: "pool4"
  type: "Pooling"
  bottom: "res4"
  top: "pool4"
  pooling_param {
    pool: MAX
    kernel_size: 3
    stride: 2
  }
}














layer {
  name: "fire10/squeeze1x1"
  type: "Convolution"
  bottom: "pool4"
  top: "fire10/squeeze1x1"
  convolution_param {
    num_output: 64
    kernel_size: 1
    weight_filler {
      type: "xavier"
    }
  }
}

layer {
	bottom: "fire10/squeeze1x1"
	top: "fire10/squeeze1x1"
	name: "fire10/scale1"
	type: "Scale"
	scale_param {
		bias_term: true
	}
}

layer {
  name: "fire10/relu_squeeze1x1"
  type: "ReLU"
  bottom: "fire10/squeeze1x1"
  top: "fire10/squeeze1x1"
}

layer {
  name: "fire10/expand1x1"
  type: "Convolution"
  bottom: "fire10/squeeze1x1"
  top: "fire10/expand1x1"
  convolution_param {
    num_output: 256
    kernel_size: 1
    weight_filler {
      type: "xavier"
    }
  }
}

layer {
	bottom: "fire10/expand1x1"
	top: "fire10/expand1x1"
	name: "fire10/ex_scale1"
	type: "Scale"
	scale_param {
		bias_term: true
	}
}

layer {
  name: "fire10/relu_expand1x1"
  type: "ReLU"
  bottom: "fire10/expand1x1"
  top: "fire10/expand1x1"
}

layer {
  name: "fire10/expand3x3"
  type: "Convolution"
  bottom: "fire10/squeeze1x1"
  top: "fire10/expand3x3"
  convolution_param {
    num_output: 256
    pad: 1
    kernel_size: 3
    weight_filler {
      type: "xavier"
    }
  }
}

layer {
	bottom: "fire10/expand3x3"
	top: "fire10/expand3x3"
	name: "fire10/ex2_scale1"
	type: "Scale"
	scale_param {
		bias_term: true
	}
}

layer {
  name: "fire10/relu_expand3x3"
  type: "ReLU"
  bottom: "fire10/expand3x3"
  top: "fire10/expand3x3"
}

layer {
  name: "fire10/concat"
  type: "Concat"
  bottom: "fire10/expand1x1"
  bottom: "fire10/expand3x3"
  top: "fire10/concat"
}

layer {
  name: "fire11/squeeze1x1"
  type: "Convolution"
  bottom: "fire10/concat"
  top: "fire11/squeeze1x1"
  convolution_param {
    num_output: 64
    kernel_size: 1
    weight_filler {
      type: "xavier"
    }
  }
}

layer {
	bottom: "fire11/squeeze1x1"
	top: "fire11/squeeze1x1"
	name: "fire11/scale1"
	type: "Scale"
	scale_param {
		bias_term: true
	}
}

layer {
  name: "fire11/expand1x1"
  type: "Convolution"
  bottom: "fire11/squeeze1x1"
  top: "fire11/expand1x1"
  convolution_param {
    num_output: 256
    kernel_size: 1
    weight_filler {
      type: "xavier"
    }
  }
}

layer {
	bottom: "fire11/expand1x1"
	top: "fire11/expand1x1"
	name: "fire11/ex_scale1"
	type: "Scale"
	scale_param {
		bias_term: true
	}
}

layer {
  name: "fire11/expand3x3"
  type: "Convolution"
  bottom: "fire11/squeeze1x1"
  top: "fire11/expand3x3"
  convolution_param {
    num_output: 256
    pad: 1
    kernel_size: 3
    weight_filler {
      type: "xavier"
    }
  }
}

layer {
	bottom: "fire11/expand3x3"
	top: "fire11/expand3x3"
	name: "fire11/ex2_scale1"
	type: "Scale"
	scale_param {
		bias_term: true
	}
}

layer {
  name: "fire11/concat"
  type: "Concat"
  bottom: "fire11/expand1x1"
  bottom: "fire11/expand3x3"
  top: "fire11/concat"
}





layer {
	bottom: "fire11/concat"
	bottom: "pool4"
	top: "res5"
	name: "res5"
	type: "Eltwise"
}

layer {
  name: "relu_res5"
  type: "ReLU"
  bottom: "res5"
  top: "res5"
}


layer {
  name: "pool5"
  type: "Pooling"
  bottom: "res5"
  top: "pool5"
  pooling_param {
    pool: MAX
    kernel_size: 3
    stride: 2
  }
}





layer {
  name: "conv8"
  type: "Convolution"
  bottom: "pool5"
  top: "conv8"
  convolution_param {
    num_output: 512
    pad: 1
    kernel_size: 3
    weight_filler {
      type: "xavier"
    }
  }
}

layer {
  name: "relu_conv8"
  type: "ReLU"
  bottom: "conv8"
  top: "conv8"
}

layer {
  name: "drop8"
  type: "Dropout"
  bottom: "conv8"
  top: "conv8"
  dropout_param {
    dropout_ratio: 0.5
  }
}

layer {
  name: "conv9"
  type: "Convolution"
  bottom: "conv8"
  top: "conv9"
  convolution_param {
    num_output: 512
    pad: 1
    kernel_size: 3
    weight_filler {
      type: "xavier"
    }
  }
}

layer {
  name: "relu_conv9"
  type: "ReLU"
  bottom: "conv9"
  top: "conv9"
}

layer {
  name: "drop9"
  type: "Dropout"
  bottom: "conv9"
  top: "conv9"
  dropout_param {
    dropout_ratio: 0.5
  }
}


layer {
  name: "conv10"
  type: "Convolution"
  bottom: "conv9"
  top: "conv10"
  convolution_param {
    num_output: 365
    kernel_size: 1
    weight_filler {
      type: "gaussian"
      mean: 0.0
      std: 0.01
    }
  }
}

layer {
  name: "relu_conv10"
  type: "ReLU"
  bottom: "conv10"
  top: "conv10"
}

layer {
  name: "pool10"
  type: "Pooling"
  bottom: "conv10"
  top: "pool10"
  pooling_param {
    pool: AVE
    global_pooling: true
  }
}

layer {
  name: "Loss"
  type: "SoftmaxWithLoss"
  bottom: "pool10"
  bottom: "label"
  top: "Loss"
  exclude{
	stage:"deploy"
  }
}

layer {
  name: "Accuracy"
  type: "Accuracy"
  bottom: "pool10"
  bottom: "label"
  top: "Accuracy"
  include {
    stage: "val"
  }
}

layer {
  name: "Accuracy_Top5"
  type: "Accuracy"
  bottom: "pool10"
  bottom: "label"
  top: "Accuracy_Top5"
  include {
    stage: "val"
  }
  accuracy_param {
    top_k: 5
  }
}


layer{
  name: "Softmax"
  type: "Softmax"
  bottom: "pool10"
  top: "Softmax"
  include{
	stage: "deploy"
  }
}
